…
	NREM                : 239188
	REM                 : 38671
	ARTIFACT            : 2191
[2024-01-06 17:45:31,603] {dataloader:107} INFO - data distribution in database for dataset valid:
	WAKE                : 48319
	NREM                : 35104
	REM                 : 5341
	ARTIFACT            : 835
[2024-01-06 17:45:31,611] {dataloader:134} INFO - data distribution after processing:
	WAKE                : 48319
	NREM                : 35104
	REM                 : 5341
	ARTIFACT            : 835
[2024-01-06 17:45:32,847] {run_experiment:47} INFO - classifier:
Model(
  (feature_extractor): Sequential(
    (0): BatchNorm1d(3, eps=1e-05, momentum=0.1, affine=True, track_running_stats=True)
    (1): Conv1d(3, 96, kernel_size=(5,), stride=(1,))
    (2): ReLU(inplace=True)
    (3): BatchNorm1d(96, eps=1e-05, momentum=0.1, affine=True, track_running_stats=True)
    (4): Dropout(p=0.0, inplace=False)
    (5): Conv1d(96, 96, kernel_size=(5,), stride=(2,))
    (6): ReLU(inplace=True)
    (7): BatchNorm1d(96, eps=1e-05, momentum=0.1, affine=True, track_running_stats=True)
    (8): Dropout(p=0.2, inplace=False)
    (9): Conv1d(96, 96, kernel_size=(5,), stride=(1,))
    (10): ReLU(inplace=True)
    (11): BatchNorm1d(96, eps=1e-05, momentum=0.1, affine=True, track_running_stats=True)
    (12): Dropout(p=0.0, inplace=False)
    (13): Conv1d(96, 96, kernel_size=(5,), stride=(2,))
    (14): ReLU(inplace=True)
    (15): BatchNorm1d(96, eps=1e-05, momentum=0.1, affine=True, track_running_stats=True)
    (16): Dropout(p=0.2, inplace=False)
    (17): Conv1d(96, 96, kernel_size=(5,), stride=(1,))
    (18): ReLU(inplace=True)
    (19): BatchNorm1d(96, eps=1e-05, momentum=0.1, affine=True, track_running_stats=True)
    (20): Dropout(p=0.0, inplace=False)
    (21): Conv1d(96, 96, kernel_size=(5,), stride=(2,))
    (22): ReLU(inplace=True)
    (23): BatchNorm1d(96, eps=1e-05, momentum=0.1, affine=True, track_running_stats=True)
    (24): Dropout(p=0.2, inplace=False)
    (25): Conv1d(96, 96, kernel_size=(5,), stride=(1,))
    (26): ReLU(inplace=True)
    (27): BatchNorm1d(96, eps=1e-05, momentum=0.1, affine=True, track_running_stats=True)
    (28): Dropout(p=0.0, inplace=False)
    (29): Conv1d(96, 96, kernel_size=(5,), stride=(2,))
    (30): ReLU(inplace=True)
    (31): BatchNorm1d(96, eps=1e-05, momentum=0.1, affine=True, track_running_stats=True)
    (32): Dropout(p=0.2, inplace=False)
  )
  (classifier): Sequential(
    (0): Dropout(p=0.2, inplace=False)
    (1): Linear(in_features=3936, out_features=80, bias=True)
    (2): ReLU(inplace=True)
    (3): Dropout(p=0.2, inplace=False)
    (4): Linear(in_features=80, out_features=4, bias=True)
  )
)
[2024-01-06 17:46:08,437] {train_model:86} INFO - Train Epoch: 1 [60928/612104 (10%)]	lr:2.56e-05	Loss: 38.031639
[2024-01-06 17:47:06,659] {train_model:86} INFO - Train Epoch: 1 [122112/612104 (20%)]	lr:2.56e-05	Loss: 27.646271
[2024-01-06 17:47:27,088] {train_model:86} INFO - Train Epoch: 1 [183296/612104 (30%)]	lr:2.56e-05	Loss: 20.383509
[2024-01-06 17:47:38,109] {train_model:86} INFO - Train Epoch: 1 [244480/612104 (40%)]	lr:2.56e-05	Loss: 32.758038
…
